data.pth (torch, 6257 bytes, 6 tensors)

l1.weight f4 [8, 63]
000000 10 19 26 be 73 33 04 be 60 c1 eb 3e 38 37 9c be
       -0.16220498 -0.12910251 0.4604597 -0.3051088
000010 79 9e 8d 3e 31 00 26 be c5 91 25 3e df a3 61 be
       0.27659968 -0.1621101 0.16168888 -0.22035168
000020 66 d2 10 3e 53 36 6f be 89 04 94 3e 62 84 36 3f
       0.1414276 -0.23360567 0.2890971 0.7129575
000030 b2 78 d8 3e 14 6e 80 be 49 a9 db 3c 40 59 8c 3e
       0.42279583 -0.25083983 0.02681412 0.27411842
000040 1f 8b 9a 3e 29 07 47 be a1 aa 2a be 63 02 a8 be
       0.30184266 -0.19436325 -0.16666652 -0.3281432
000050 eb c4 c8 be e1 38 31 3f e1 69 0e bf fc ac e4 bd
       -0.39212736 0.69227415 -0.5563031 -0.11165807
000060 d0 6d 0e bf 3a 6f 0e bf 17 36 99 3e 74 41 f4 3c
       -0.5563631 -0.5563847 0.2992408 0.029816367
000070 df 95 59 be 60 92 54 bc be d8 ff bd f8 b8 05 3f
       -0.21248578 -0.012974352 -0.12492512 0.52235365
000080 de bc b5 be 67 49 6b 3e 87 7c 28 be 32 4c b7 3d
       -0.35495657 0.2297722 -0.16453753 0.0895008
000090 6e 50 1b 3f c0 7b cb bd d6 0a bb 3e db 2b a7 bd
       0.606696 -0.09935713 0.36531705 -0.08162662
0000a0 2b 01 bf be 2f 58 3b 3f f6 97 99 be e0 43 06 bf
       -0.3730558 0.7318143 -0.2999875 -0.5244732
0000b0 5b b2 76 3e b8 6f ec 3e 99 c0 a2 be a5 4e b4 bd
       0.24091475 0.46178985 -0.31787565 -0.08804063
0000c0 7c 22 51 be d2 6a e1 be 84 2f 91 be 1f 24 70 be
       -0.20423311 -0.4402681 -0.28356564 -0.23451279
0000d0 2c b9 68 bb 77 67 68 be a8 31 67 3e 36 2f 83 bd
       -0.0035510762 -0.22695719 0.22577536 -0.06405489
0000e0 7b cb 06 3f 9e 38 03 3c 5d d3 1c be 4a e0 6f be
       0.52654237 0.008009104 -0.15315004 -0.23425403
0000f0 8a 67 cd 3e b5 d1 a3 3e 61 2f fa bd f9 d5 eb 3e
       0.40118057 0.3199593 -0.12216068 0.46061686
000100 78 58 2b 3e 15 f7 12 3f d1 0d 88 3e e7 ac ec 3e
       0.16732967 0.5740827 0.2657304 0.46225664
000110 cd 8f 1a be 9d c9 b7 3d 6e 77 95 3e 25 45 aa be
       -0.15093918 0.089740016 0.2919268 -0.33255878
000120 d3 3b 81 3e 76 e5 00 3f 2a df 5d be 60 0f e9 3e
       0.25240955 0.5035013 -0.21667162 0.45519543
000130 c4 8b 00 3f ab b4 c3 3e d2 03 23 bd 5f 77 28 3f
       0.50213265 0.38223776 -0.039798565 0.65807146
000140 05 4d 4a 3d 24 81 1a be 9a 1d ae bd 3c d0 92 be
       0.049389858 -0.15088326 -0.0850174 -0.28674495
000150 ae 86 35 be 61 02 e0 be a9 36 90 3e e4 0a e0 be
       -0.17727157 -0.43751815 0.28166702 -0.4375831
000160 36 00 e0 be 96 cd a8 3e 18 40 c2 bd c8 36 e7 3d
       -0.4375016 0.3296935 -0.09484881 0.112897456
000170 64 d3 1e 3e 7b 70 21 3e 7c 96 b5 bc f9 6e fb bd
       0.15510327 0.15765564 -0.022166483 -0.12277026
000180 1a 9c a2 3e 69 84 1a be a1 16 27 3e 83 eb 48 3f
       0.3175972 -0.15089573 0.16317226 0.7848436
000190 f6 b8 14 3f b8 b3 33 3f eb 8a 6e 3d f6 55 d7 be
       0.5809473 0.70196104 0.05823795 -0.4205777
0001a0 05 28 6f 3f 7b 61 db 3e 9a 86 2f 3f 54 b4 b2 3e
       0.9342044 0.4284781 0.6856476 0.34903204
0001b0 a5 38 9d bd bf 04 fa bd c3 5a b1 be b3 8e 55 3e
       -0.0767682 -0.122079365 -0.34639558 0.20855217
0001c0 77 a5 8d 3d e1 61 03 3f 37 55 20 3f 23 f3 94 3e
       0.069163255 0.51321226 0.6263003 0.2909175
0001d0 fa 66 bd be 23 bf cb 3e c2 c7 5e 3e 4e 4a 25 3f
       -0.36992627 0.39794263 0.21755889 0.64566505
0001e0 34 e3 80 be 23 a0 cf 3d 6f f7 c1 be 56 43 09 3f
       -0.25173342 0.101379655 -0.3788409 0.5361837
0001f0 0a ee c8 be d6 d8 6f 3d c9 4b 39 3f d8 58 26 3d
       -0.3924411 0.0585564 0.72381264 0.04061207
000200 2d 6b 96 3e 82 04 35 3e 63 89 1d bf fd 03 97 3e
       0.29378644 0.17677501 -0.6153776 0.2949523
000210 1b 73 0c 3f 08 28 dd 3e 18 b6 c0 bd 7c 62 81 be
       0.54863137 0.43194604 -0.094097316 -0.2527045
000220 c9 e8 f6 be b5 14 ec 3e 63 91 51 be 24 b3 c7 3e
       -0.48224476 0.46109548 -0.20465617 0.3900386
000230 21 ff c8 be c1 05 72 3e b1 30 aa 3e d3 90 79 be
       -0.39257148 0.23635007 0.33240274 -0.24371652
000240 ce 07 cc 3e ae 7d 78 be 9b d3 ab 3e 0a 08 00 3f
       0.39849705 -0.24266693 0.3355988 0.50012267
000250 29 fc b1 3e 18 8d 23 3f 36 5a ac 3e 6c 80 af 3e
       0.34762695 0.63887167 0.33662575 0.34277666
000260 c2 3a 2f be 13 30 1b bd a7 be a2 bd c5 53 1c 3f
       -0.17112258 -0.037887644 -0.0794652 0.6106532
000270 dc 3b b5 be 39 43 54 3e a6 ab 68 be 09 ff 8c be
       -0.35397232 0.20728768 -0.22721729 -0.27538326
000280 d0 07 b5 3e 67 da 12 3b 57 61 10 3f 14 74 0e bf
       0.35357523 0.002240801 0.5639853 -0.5564587
000290 9c ee 82 3e 9f 1f 6c 3e b7 8d 32 be 1c c9 10 3f
       0.2557267 0.23058937 -0.17436872 0.5655687
0002a0 03 47 26 3e 68 7f f5 3e 1f f7 bd be 29 db 37 3e
       0.16238026 0.47948766 -0.371026 0.17954697
0002b0 18 7e 1a be 7e 95 38 bd 49 88 43 3e ea b3 8b 3f
       -0.15087163 -0.04506444 0.19094957 1.091428
0002c0 65 21 46 3f e5 0d 17 be e4 09 60 be 5c 95 05 be
       0.77394706 -0.14751394 -0.21878773 -0.13045257
0002d0 dd 38 29 bd e3 06 4c 3d 78 c5 06 3f 85 0a 3e be
       -0.041313995 0.049811255 0.52645063 -0.185587
0002e0 5f 49 a5 be da 4b b1 3d 5c ac 87 be 26 75 19 3f
       -0.3228254 0.08657046 -0.26498687 0.5994438
0002f0 b8 1e ca 3c 64 bd 2f bd 30 7f 7e 3e d0 32 82 3e
       0.024672851 -0.042905226 0.24853206 0.25429392
000300 11 04 d1 3e 16 35 01 be 02 a2 9a 3e 83 e1 fc 3e
       0.40823415 -0.12617907 0.30201727 0.49390802
000310 bd e1 67 3e 2d ae ac bc 87 88 9c be 42 b5 05 bf
       0.22644706 -0.021079147 -0.30572912 -0.522297
000320 68 b6 04 bf 81 e4 aa be 95 a5 99 3e 81 a9 6e be
       -0.5184083 -0.3337746 0.30009142 -0.23306848
000330 c2 c2 ec 3e 24 c7 bf 3e 5f 19 48 be ce a0 84 3e
       0.46242338 0.3745662 -0.19540928 0.25903934
000340 3e 8d d7 be 1e 7e b1 3e 55 91 0b bf 25 b0 4a 3e
       -0.42099947 0.34666532 -0.54518634 0.19793756
000350 51 f7 e3 be e8 65 8e 3e 40 07 6b 3e e8 16 16 3e
       -0.44524625 0.27812123 0.22951984 0.14657176
000360 47 13 1b 3e 13 66 ac 3e 67 b2 17 3f 09 35 99 be
       0.15144072 0.33671626 0.59256595 -0.29923275
000370 c3 77 aa be f0 3a 56 be d5 81 16 3d 9f 6a 83 3e
       -0.33294496 -0.2092092 0.03674491 0.25667283
000380 38 c3 26 bc 38 f1 10 3f 9d 57 8b be c3 00 f1 3e
       -0.01017838 0.5661807 -0.2721528 0.47070894
000390 1a 6b 6f 3e e9 69 ed bc 54 79 47 3f 97 ef ee 3e
       0.233807 -0.028981166 0.7791951 0.46667168
0003a0 c9 00 cc 3e a6 bb 77 bd 57 a0 97 be 45 65 0f be
       0.3984435 -0.06048169 -0.29614517 -0.14003475
0003b0 e8 95 d4 bd 09 db b3 3e 84 2d 23 3f d8 1c f1 bd
       -0.10380155 0.35128048 0.63741326 -0.1177308
0003c0 cd 85 1d 3e ad 24 59 3e 1a eb 1f bb bc 02 a1 3e
       0.15383072 0.21205397 -0.0024401606 0.314474
0003d0 d8 f3 0a bd 2b fa 10 3f ec 19 a8 bd 72 7c a7 be
       -0.033923954 0.56631726 -0.08208069 -0.32712132
0003e0 60 97 7c 3e 58 93 3b be e7 14 c5 3e 22 d3 b7 be
       0.2466712 -0.18317926 0.3849251 -0.3590327
0003f0 84 e6 c5 be 57 a8 01 be 98 c5 2f be 94 af 82 be
       -0.38652432 -0.12661873 -0.1716522 -0.2552458

l1.bias f4 [8]
000000 69 69 0e 3f 88 06 e0 3e 52 b5 88 3f 9a 76 16 3f
       0.55629593 0.43754983 1.0680335 0.5877472
000010 1e 06 14 3f 3c 08 25 3f 93 38 1b 3f ce 33 64 3f
       0.57821834 0.6446569 0.606332 0.8914155

l2.weight f4 [8, 8]
000000 b0 ef 59 3f 17 7a 8a be f8 e4 85 bd 7b cb 58 bf
       0.8513136 -0.27046272 -0.06537813 -0.84685487
000010 15 7c 85 3f 11 40 20 bc 1b a3 5a 3f 71 14 7f 3e
       1.0428492 -0.0097809 0.8540513 0.24910142
000020 1c 00 88 3f 50 c2 90 3f 07 17 4a 3f e2 70 8a 3f
       1.0625033 1.13093 0.78941387 1.0815699
000030 a5 01 37 bf 32 66 09 3d 9f d2 33 3f f8 1c 84 bf
       -0.71486884 0.033544727 0.7024326 -1.032134
000040 3a f5 3e 3f 28 d2 c7 3f 42 3f 74 3f 84 ce 8d 3f
       0.74592936 1.561101 0.95409024 1.1078649
000050 45 b8 bf be bb 6b fe be f9 4e 38 3e 0e 1c 41 bf
       -0.37445274 -0.49691567 0.17998876 -0.75433433
000060 fc 38 81 3e ea 4f 9c 3f 62 b4 98 bf 38 dd 6a bf
       0.25238788 1.2211888 -1.1930048 -0.91743803
000070 fc 78 53 3f 93 c0 8e be 0e 68 73 3e 6e 72 ae 3e
       0.8260648 -0.27881297 0.23770162 0.34071678
000080 d7 cd 35 3f 1c 54 0e bf 4c 02 ae 3f 2c 48 1e 3f
       0.7101721 -0.5559709 1.3594451 0.61828876
000090 b8 28 a8 3e ba ae 1a 3e eb 52 97 bf 32 dc b2 3f
       0.32843566 0.15105715 -1.182218 1.3973448
0000a0 6a 04 27 bf db 0c 4b 3d a0 a0 a7 3f a9 4c 9b 3f
       -0.6524111 0.049572807 1.3095894 1.213277
0000b0 cb a1 2b bf 96 e7 0e 3f 86 54 b7 be 7e d6 59 3f
       -0.6704375 0.5582212 -0.35806674 0.85092914
0000c0 75 9c cc be 7a 97 4f be 50 6a ee be 26 cc dd 3d
       -0.39963117 -0.20272627 -0.46565485 0.10829954
0000d0 01 54 9a 3f 53 c4 9e 3f 8e 0b 93 3f e8 56 15 3f
       1.2056886 1.2403663 1.1487901 0.58335733
0000e0 a0 db 9b bf b2 d0 bf be 1c f5 20 3e 60 d8 70 3f
       -1.2176399 -0.3746391 0.15718502 0.9408016
0000f0 e8 b5 b5 be cf f4 94 3f 8d 25 1f 3f 4b 5e a6 3f
       -0.35490346 1.163721 0.6216667 1.2997526

l2.bias f4 [8]
000000 2e b5 23 3f ac 2a 0d 3f 95 54 0a 3e 8d d6 8d bb
       0.63948333 0.5514324 0.13508828 -0.004328555
000010 9d 6b 3d 3f cc 3c a9 3e ca 98 b6 3e 6d 87 86 3e
       0.7399233 0.33054197 0.35663444 0.26275197

l3.weight f4 [8, 8]
000000 87 1e dd 3e 09 26 ac 3e 50 a6 31 3e 72 61 2b 3f
       0.43187353 0.3362277 0.173486 0.66945565
000010 12 91 a1 bf e9 ff 74 bf 86 11 54 3e ae 6e 53 bf
       -1.2622397 -0.9570299 0.2070981 -0.8259076
000020 de 94 f5 3e 1d 4c 6d be c2 81 ae bf 5f e7 b9 bf
       0.4796514 -0.23173566 -1.3633349 -1.4523734
000030 ca d1 48 bf fb 90 a7 be fb 49 0f 3f a9 57 1b 3f
       -0.7844511 -0.327278 0.5597226 0.60680634
000040 df 29 65 3f 37 5e 09 bd d6 f4 dd bc 9b a9 a5 bf
       0.89517015 -0.033537116 -0.027094286 -1.2942384
000050 0b f8 fb 3e 79 82 10 be 60 43 48 be 9c bc a8 bf
       0.4921268 -0.14112271 -0.19556952 -1.3182559
000060 8b 3c 67 bf d5 3e a4 bf 18 06 ba bf 59 bd d9 be
       -0.90326756 -1.2831675 -1.453311 -0.42527273
000070 a5 3a 1d 3f 9d 3f 93 3e 14 d1 cb 3e 55 e9 03 3f
       0.6141761 0.2875947 0.3980795 0.5152791
000080 ff d2 13 3f 7a 9b a4 bf 83 e9 be bf 94 92 89 3f
       0.5774383 -1.2859948 -1.4915012 1.0747857
000090 99 b8 86 bf d0 ec 9e bf f6 c5 cd 3e 31 ed 9d 3e
       -1.0525085 -1.241602 0.40190095 0.30845025
0000a0 20 2a 9a bf b8 87 dc 3e 54 3c a4 3d 1b d6 0e bf
       -1.2044106 0.43072295 0.08019319 -0.5579545
0000b0 eb 14 61 bf 39 dc 3c 3d 29 02 25 3d 81 7a f1 3e
       -0.87922543 0.04610846 0.040285263 0.47163776
0000c0 2b fa e4 bf 63 b2 d5 bd 6c 48 1e 3d 20 93 2a be
       -1.7888845 -0.10434415 0.038643286 -0.16657686
0000d0 7c ef 23 3f 5a 1a e0 3e c1 89 6f bf 22 b4 94 3e
       0.640373 0.43770105 -0.9356957 0.2904368
0000e0 67 31 ad bf 44 69 17 3f 7e 25 3e 3f 1a cc 97 be
       -1.3530701 0.59145 0.7427596 -0.29647905
0000f0 d0 4c 2e bd a0 4e 14 be 5a 89 73 bf 5b da 8d bf
       -0.042553723 -0.14483118 -0.95131457 -1.1082262

l3.bias f4 [8]
000000 4a 49 f4 3d 71 09 60 be ca 7f 47 3e 6b 56 ba bc
       0.11928041 -0.21878602 0.19482341 -0.022746285
000010 47 55 f2 bd c0 da 7f be 76 e3 b4 be 35 8d 39 3d
       -0.118326716 -0.2498579 -0.3532979 0.04530068
